pesto/weights/mir-1k.ckpt (torch, 123538 bytes, 15 tensors)

encoder.layernorm.weight f4 [1, 264]
0	0x3f78ed1c	0.972368
1	0x3f78a5bb	0.97127885
2	0x3f820b0c	1.0159621
3	0x3f7b031a	0.9805161
4	0x3f7398ff	0.9515533
5	0x3f6a1146	0.9143261
6	0x3f6fa948	0.9361768
7	0x3f739527	0.95149463
8	0x3f7064fa	0.9390408
9	0x3f7088e1	0.9395886
10	0x3f705913	0.93885916
11	0x3f6abe9e	0.9169711
12	0x3f6d0eed	0.926009
13	0x3f724bd0	0.9464693
14	0x3f67d9f5	0.9056695
15	0x3f69428e	0.9111718
16	0x3f664829	0.8995386
17	0x3f6f394f	0.9344682
18	0x3f721801	0.9456788
19	0x3f6ff969	0.93739945
20	0x3f6b7e2a	0.91989386
21	0x3f6a7296	0.91581094
22	0x3f68c202	0.9092103
23	0x3f6831b2	0.9070083
24	0x3f621b3b	0.883228
25	0x3f58b845	0.84656173
26	0x3f54c583	0.8311388
27	0x3f5b743d	0.8572424
28	0x3f625400	0.88409424
29	0x3f640273	0.8906624
30	0x3f659549	0.89680916
31	0x3f650265	0.8945678
32	0x3f67bcf6	0.90522707
33	0x3f63be22	0.88961995
34	0x3f673065	0.9030822
35	0x3f6b0d87	0.91817516
36	0x3f6a5d30	0.9154844
37	0x3f6b1d5d	0.9184168
38	0x3f67b318	0.9050765
39	0x3f663bd1	0.8993502
40	0x3f64f4e3	0.8943617
41	0x3f69745b	0.9119317
42	0x3f703a48	0.9383893
43	0x3f7853e4	0.97003007
44	0x3f72c84a	0.94836867
45	0x3f7240c2	0.9463006
46	0x3f777e22	0.9667684
47	0x3f75cdab	0.9601695
48	0x3f73bdf9	0.9521175
49	0x3f765e20	0.96237373
50	0x3f748f43	0.955311
51	0x3f76c130	0.9638853
52	0x3f792ab1	0.97330767
53	0x3f794aeb	0.9737994
54	0x3f768cf3	0.9630882
55	0x3f7a2b55	0.9772237
56	0x3f7b5a3b	0.98184556
57	0x3f7b2078	0.9809642
58	0x3f7d15ca	0.9886137
59	0x3f7e6683	0.9937517
60	0x3f7ee30e	0.9956521
61	0x3f7d5946	0.98964345
62	0x3f7c192d	0.98475915
63	0x3f80358b	1.001634
64	0x3f7f1a19	0.99649197
65	0x3f7db2c5	0.99100906
66	0x3f7cbb6f	0.987235
67	0x3f7d7b9d	0.99016744
68	0x3f7d710f	0.9900064
69	0x3f7e203e	0.9926795
70	0x3f80f035	1.0073305
71	0x3f81e3e1	1.0147668
72	0x3f815bf1	1.0106183
73	0x3f81e9bf	1.0149459
74	0x3f81792e	1.0115106
75	0x3f82375b	1.0173143
76	0x3f816f1e	1.0112035
77	0x3f824b36	1.0179203
78	0x3f82d090	1.0219898
79	0x3f81ee52	1.0150855
80	0x3f83214c	1.0244536
81	0x3f844283	1.0332798
82	0x3f82ebf7	1.0228261
83	0x3f819bfa	1.0125725
84	0x3f84e236	1.0381534
85	0x3f84889c	1.035419
86	0x3f861478	1.0474997
87	0x3f853f78	1.0409994
88	0x3f843458	1.0328474
89	0x3f85013a	1.0390999
90	0x3f83ae60	1.028759
91	0x3f850095	1.0390803
92	0x3f84b400	1.0367432
93	0x3f8558d0	1.0417728
94	0x3f851d54	1.0399575
95	0x3f86040b	1.0469984
96	0x3f874e67	1.0570801
97	0x3f85b659	1.0446273
98	0x3f873a9c	1.0564761
99	0x3f88ab33	1.0677246
100	0x3f86d648	1.0534143
101	0x3f875eef	1.0575846
102	0x3f87ad3d	1.0599743
103	0x3f8910b1	1.0708219
104	0x3f87436d	1.0567452
105	0x3f881c43	1.0633625
106	0x3f884a19	1.0647613
107	0x3f886298	1.0655088
108	0x3f884ba3	1.0648082
109	0x3f869d8c	1.051683
110	0x3f882857	1.0637311
111	0x3f8845df	1.0646323
112	0x3f86fc15	1.0545679
113	0x3f87f29a	1.0620911
114	0x3f8865da	1.0656083
115	0x3f88e32f	1.0694331
116	0x3f881a9d	1.0633122
117	0x3f879a86	1.0594032
118	0x3f87e69f	1.0617255
119	0x3f892652	1.071482
120	0x3f8826b6	1.0636814
121	0x3f86f38c	1.0543075
122	0x3f864f72	1.0492995
123	0x3f8795f6	1.059264
124	0x3f866dd4	1.0502267
125	0x3f86850e	1.0509355
126	0x3f86f607	1.0543832
127	0x3f86e8bb	1.0539774
128	0x3f871cc7	1.0555657
129	0x3f861efb	1.0478204
130	0x3f85bec4	1.0448842
131	0x3f86bdbd	1.0526654
132	0x3f8653ac	1.0494285
133	0x3f8685a1	1.050953
134	0x3f859f8f	1.0439318
135	0x3f87cf99	1.0610229
136	0x3f854ce9	1.0414096
137	0x3f84f55e	1.038738
138	0x3f858950	1.043253
139	0x3f86e8f7	1.0539845
140	0x3f863b9d	1.0486943
141	0x3f87be13	1.0604881
142	0x3f86f2ab	1.0542806
143	0x3f85a82a	1.0441945
144	0x3f87593a	1.0574105
145	0x3f886ff7	1.0659169
146	0x3f897400	1.0738525
147	0x3f878ddc	1.0590167
148	0x3f897620	1.0739174
149	0x3f88f5df	1.0700034
150	0x3f883301	1.0640565
151	0x3f894e3e	1.0727003
152	0x3f89b3e6	1.0758026
153	0x3f8b9bd7	1.0906934
154	0x3f885135	1.0649782
155	0x3f898ce5	1.0746123
156	0x3f89ffec	1.0781226
157	0x3f8a0d29	1.0785266
158	0x3f89a389	1.0753032
159	0x3f8a51eb	1.0806249
160	0x3f8aafa0	1.0834846
161	0x3f8b2b20	1.0872536
162	0x3f8913f6	1.0709217
163	0x3f8891b0	1.066946
164	0x3f8a3acc	1.0799193
165	0x3f8932f5	1.0718676
166	0x3f870fc0	1.0551682
167	0x3f85dd17	1.0458096
168	0x3f89f782	1.0778658
169	0x3f86cfe8	1.0532198
170	0x3f878956	1.0588787
171	0x3f8779d4	1.0584054
172	0x3f85d784	1.0456395
173	0x3f86e3bd	1.053825
174	0x3f872528	1.0558214
175	0x3f854705	1.0412298
176	0x3f840dfe	1.031677
177	0x3f8532c5	1.0406119
178	0x3f84b2a1	1.0367013
179	0x3f849342	1.035744
180	0x3f850224	1.0391278
181	0x3f82d8de	1.0222433
182	0x3f80b1a3	1.005421
183	0x3f818201	1.0117799
184	0x3f8213a0	1.0162239
185	0x3f8379c9	1.0271541
186	0x3f820321	1.0157205
187	0x3f80743c	1.0035472
188	0x3f8064e7	1.0030793
189	0x3f81fe81	1.0155793
190	0x3f80ceb8	1.0063086
191	0x3f8025f6	1.0011585
192	0x3f81658d	1.0109116
193	0x3f7fb046	0.99878347
194	0x3f807c77	1.0037984
195	0x3f80d028	1.0063524
196	0x3f802829	1.0012256
197	0x3f7e8ba8	0.9943185
198	0x3f7b5a3d	0.9818457
199	0x3f81e264	1.0147214
200	0x3f801afd	1.0008236
201	0x3f7d2d3f	0.98897165
202	0x3f7c58c3	0.9857294
203	0x3f7e3b21	0.99308974
204	0x3f7de300	0.991745
205	0x3f7c0663	0.98447245
206	0x3f7dbf24	0.9911978
207	0x3f7f787b	0.99793214
208	0x3f786a94	0.97037625
209	0x3f7ef81f	0.9959735
210	0x3f7ef06f	0.9958562
211	0x3f7d5c71	0.9896918
212	0x3f7c90b2	0.9865829
213	0x3f7d108a	0.9885336
214	0x3f792bf3	0.97332686
215	0x3f7d1e51	0.98874384
216	0x3f7d1d75	0.9887307
217	0x3f7e6ed6	0.9938787
218	0x3f7a60da	0.97804034
219	0x3f788af2	0.97087014
220	0x3f80872c	1.0041251
221	0x3f7e9d88	0.99459124
222	0x3f7c2225	0.984896
223	0x3f7a7386	0.97832525
224	0x3f78ca3a	0.97183573
225	0x3f794974	0.97377706
226	0x3f7abdc7	0.9794583
227	0x3f7a1919	0.97694546
228	0x3f7f4dd0	0.9972811
229	0x3f7efb02	0.9960176
230	0x3f7cb245	0.9870952
231	0x3f7a7823	0.97839564
232	0x3f7dca9d	0.9913729
233	0x3f7d13f6	0.9885858
234	0x3f80c235	1.0059267
235	0x3f7bbeb9	0.98337895
236	0x3f7f3422	0.99688923
237	0x3f7a35fd	0.9773863
238	0x3f7e80a5	0.99415046
239	0x3f7e1351	0.99248224
240	0x3f7da09f	0.99073213
241	0x3f7f1fc7	0.99657863
242	0x3f7e668b	0.9937522
243	0x3f7d11e9	0.98855454
244	0x3f7e05d6	0.99227655
245	0x3f8012b3	1.0005707
246	0x3f7bc9c0	0.9835472
247	0x3f7c1854	0.9847462
248	0x3f7ae256	0.9800161
249	0x3f774613	0.965913
250	0x3f754b0f	0.95817655
251	0x3f778135	0.9668153
252	0x3f701723	0.93785304
253	0x3f692ce6	0.91084135
254	0x3f71fd8a	0.94527495
255	0x3f74f5bd	0.95687467

encoder.layernorm.bias f4 [1, 264]
0	0xbd004ae5	-0.031321425
1	0x3ba2a4d4	0.0049634967
2	0x3ce2093f	0.0275923
3	0x3d61ccaf	0.055126842
4	0xbb39bf80	-0.0028342903
5	0xbd8ad1e9	-0.067783184
6	0xbd546a45	-0.05185916
7	0x3bb71589	0.005587284
8	0x3ccd99d1	0.02509776
9	0x3ca3e1fc	0.020005219
10	0x3cde9428	0.027170256
11	0x3c74b8ad	0.014936608
12	0x3b71fab2	0.0036923108
13	0xbc4e7bff	-0.012602805
14	0xbcdb7153	-0.026787436
15	0xbca5487c	-0.020176165
16	0xbc9256b2	-0.017863605
17	0xbc805b70	-0.0156686
18	0xbc8d36b8	-0.017238006
19	0xbc1425a9	-0.009042182
20	0xbbda0c5b	-0.006654305
21	0xbbabc400	-0.005241871
22	0xbcc14423	-0.02359206
23	0xbd50d55a	-0.050984718
24	0xbddaa17c	-0.10675332
25	0xbe012b61	-0.12614204
26	0xbe0b064f	-0.13576625
27	0xbdd3c82b	-0.103409134
28	0xbd8d095a	-0.06886549
29	0xbd3d1ce3	-0.046170127
30	0xbcfb1fac	-0.03065475
31	0xbce3aa01	-0.027791025
32	0xbd028a4e	-0.03187018
33	0xbd235581	-0.039876465
34	0xbd22b165	-0.039719958
35	0xbd3a7604	-0.045522705
36	0xbd57ae03	-0.052656185
37	0xbd38ba7f	-0.04509973
38	0xbd336d0c	-0.043805167
39	0xbd2d14c9	-0.04225615
40	0xbd3f8e60	-0.04676664
41	0xbd5f6853	-0.05454285
42	0xbd335046	-0.043777727
43	0xbd1bbbc8	-0.03802088
44	0xbd1eb712	-0.03874881
45	0xbd2723a5	-0.040805478
46	0xbd1f9ee2	-0.03896988
47	0xbd28cfa0	-0.04121363
48	0xbd0f9cbc	-0.035061583
49	0xbce2abc9	-0.027669804
50	0xbcd6884c	-0.026188038
51	0xbcd556d0	-0.026042372
52	0xbcdd8bd0	-0.027044207
53	0xbcbc8a3d	-0.023015136
54	0xbce4af69	-0.027915673
55	0xbd15468b	-0.03644423
56	0xbd4352ef	-0.047686514
57	0xbd3078c1	-0.04308391
58	0xbd0e46d6	-0.034735523
59	0xbd21749f	-0.03941786
60	0xbd562e18	-0.052290052
61	0xbd8431e2	-0.06454827
62	0xbd7ba6e7	-0.061438467
63	0xbd494f19	-0.0491477
64	0xbd13cda8	-0.0360848
65	0xbd03a9f7	-0.032144513
66	0xbce22fd1	-0.027610691
67	0xbce35c48	-0.027753964
68	0xbccba1dc	-0.024857454
69	0xbcd6424e	-0.026154663
70	0xbcafd24d	-0.021462584
71	0xbc36f991	-0.0111679
72	0xbb978ff2	-0.004625314
73	0xbc37364d	-0.01118238
74	0xbc0709e2	-0.008242102
75	0xba1f83d9	-0.00060850155
76	0x3bdfad34	0.0068260673
77	0x3bea1a6c	0.007144263
78	0x3c27f244	0.010250632
79	0x3bc98433	0.0061497926
80	0xbba7b85b	-0.0051184124
81	0xbca2e5eb	-0.019885024
82	0xbcdcc8a3	-0.02695114
83	0xbca99de0	-0.020705163
84	0xbbfad4f2	-0.0076547796
85	0x3c2a7e39	0.01040607
86	0x3cd0c7b1	0.025485845
87	0x3ce36f80	0.027763128
88	0x3ca5bcf4	0.020231701
89	0x3ccd5ab3	0.025067663
90	0x3cf8a989	0.030354278
91	0x3d342b1a	0.043986417
92	0x3d1bb0fc	0.038010582
93	0x3d1f2254	0.038851097
94	0x3d1132db	0.03544889
95	0x3d16106a	0.036636747
96	0x3d0ec3bb	0.034854632
97	0x3d062e47	0.032758977
98	0x3cef86bb	0.02923905
99	0x3d37356e	0.04472869
100	0x3d404428	0.04694
101	0x3d3a2a2f	0.045450386
102	0x3d32aa2c	0.04361932
103	0x3d384816	0.04499062
104	0x3d37cb3e	0.04487156
105	0x3d1a751e	0.037709348
106	0x3d1f87e6	0.038947962
107	0x3d214148	0.039368898
108	0x3cf7fa52	0.03027073
109	0x3c8ab239	0.016930686
110	0x3cc181ab	0.0236214
111	0x3cee5bf7	0.029096587
112	0x3d07877e	0.0330882
113	0x3cfa1bef	0.030530898
114	0x3d018699	0.031622503
115	0x3d079a34	0.033106044
116	0x3cc96e9d	0.024588877
117	0x3ce736c3	0.028224355
118	0x3d10b07b	0.035324555
119	0x3d1551dc	0.03645502
120	0x3ccf83de	0.025331434
121	0x3cd7eaa7	0.026357008
122	0x3cbd9b98	0.023145482
123	0x3ca85568	0.020548537
124	0x3c6331c6	0.013866847
125	0x3c0fb404	0.008770946
126	0xbadddb13	-0.0016926251
127	0xbbc3517f	-0.005960643
128	0x3a361544	0.0006945918
129	0x3c88763d	0.016657943
130	0x3c980702	0.01855803
131	0x3c63466e	0.013871772
132	0x3c0d7f4d	0.008636308
133	0x3b0d0e7d	0.0021523528
134	0x399cc4cd	0.00029901267
135	0x3988b6d3	0.00026076156
136	0x3a94f4f9	0.0011364511
137	0x3c412108	0.01178766
138	0x3ca07a36	0.019589525
139	0x3c587a01	0.013212682
140	0x3c2a25eb	0.010385017
141	0x3cdb123d	0.026742095
142	0x3d0b68a9	0.03403536
143	0x3cfe7350	0.031060845
144	0x3cde268a	0.027117986
145	0x3cce119b	0.02515488
146	0x3cff0442	0.03112996
147	0x3d18bcd2	0.037289448
148	0x3d0b31b7	0.03398296
149	0x3d10e9ac	0.035379097
150	0x3d160da8	0.036634117
151	0x3d188297	0.037233915
152	0x3d1ceae0	0.03830993
153	0x3d28e022	0.041229375
154	0x3d0f7ff4	0.035034135
155	0x3d1791b9	0.037004206
156	0x3d325a9d	0.043543447
157	0x3d2d571d	0.042319406
158	0x3ce593de	0.02802461
159	0x3cfbed65	0.030752847
160	0x3d0a7e36	0.03381177
161	0x3cf52861	0.02992648
162	0x3cce8f79	0.025214897
163	0x3cf26982	0.029591326
164	0x3d0c88ee	0.034310274
165	0x3d0f7c36	0.035030566
166	0x3cf9b06b	0.03047963
167	0x3d0d1d9b	0.034452062
168	0x3d185c45	0.03719737
169	0x3ca3d36e	0.019998278
170	0x3c582481	0.013192297
171	0x3c1bac1d	0.009501484
172	0x3c1d34c5	0.009595101
173	0x3c712536	0.014718344
174	0x3cce2568	0.025164321
175	0x3ceef035	0.029167274
176	0x3c80db75	0.015729645
177	0x3c197d4d	0.009368253
178	0x3c0a813f	0.008453666
179	0x3bfd8953	0.0077373176
180	0x3c4551de	0.012043444
181	0x3c3aa018	0.011390708
182	0x3cda13e4	0.026620813
183	0x3d01d4d3	0.031697106
184	0x3d227147	0.03965881
185	0x3d0e0191	0.034669463
186	0x3c893ccb	0.016752621
187	0x3b8e51bb	0.004343239
188	0x3b36134b	0.0027782496
189	0x3c3b4e63	0.011432263
190	0x3c273dde	0.010207621
191	0x3c2b55e2	0.010457488
192	0x3c3c5af8	0.011496298
193	0x3c13027e	0.008972762
194	0x3b471ba3	0.0030381463
195	0xbb464af6	-0.0030257083
196	0x3a196778	0.0005851905
197	0x3b8e1870	0.0043364093
198	0x3b148f27	0.0022668333
199	0xbbdbdca6	-0.006709653
200	0xbbb58b03	-0.005540253
201	0xbc2c9e45	-0.010535781
202	0xbb94f604	-0.004545929
203	0x3b95fc0e	0.0045771664
204	0x3c607d47	0.013701743
205	0x3c2d3657	0.010572038
206	0x3c3ec1d2	0.01164289
207	0x3c90f978	0.017697081
208	0x3c56fc48	0.013121672
209	0x3a8990b7	0.0010495399
210	0x3c7d3645	0.015454833
211	0x3cac2e4c	0.02101817
212	0x3bc305d8	0.0059516244
213	0x3b949f82	0.0045356164
214	0x3c85ced0	0.016333967
215	0x3cb51104	0.02210284
216	0x3c90a2ad	0.017655695
217	0x3c1ee9dd	0.009699312
218	0x3bb3a0ec	0.00548183
219	0xbb687631	-0.0035470838
220	0xbbbe0963	-0.005799459
221	0xbc3e5758	-0.011617504
222	0xbc0d26eb	-0.008615236
223	0xbc6c0976	-0.014406553
224	0xbca14352	-0.019685421
225	0xbccb6e2e	-0.024832811
226	0xbc692e9a	-0.014232302
227	0xbc7c38fc	-0.0153944455
228	0xbce9b9c1	-0.028530957
229	0xbcd27e37	-0.02569495
230	0xbcd97f04	-0.026549824
231	0xbcf9d214	-0.03049568
232	0xbca74110	-0.020416766
233	0x3b9b1054	0.004732171
234	0xbb985975	-0.004649336
235	0xbcbe8b04	-0.023259647
236	0xbcf0dea7	-0.029403044
237	0xbc8a5531	-0.016886326
238	0xbc89aff8	-0.016807541
239	0xbc8863ce	-0.016649153
240	0xbc450d7a	-0.012027139
241	0xbc4c9e75	-0.012488951
242	0xbc98b606	-0.018641483
243	0xbcc5ae24	-0.024130888
244	0xbca96806	-0.020679485
245	0xbc854022	-0.016265932
246	0xbc75ed47	-0.015010185
247	0xbcff0886	-0.031131994
248	0xbcb2daf9	-0.02183293
249	0xbc2ad9e4	-0.010427926
250	0xbc55e392	-0.013054745
251	0xbc93c00b	-0.01803591
252	0xbba570ed	-0.005048862
253	0x3c51092a	0.012758533
254	0x3c076ef0	0.008266196
255	0xbc2de648	-0.010613985

encoder.conv1.0.weight f4 [40, 1, 15]
0	0xbdea78bc	-0.114488095
1	0xbe6b3d18	-0.22972524
2	0xbd3d4274	-0.046205953
3	0x3dc7a504	0.09748271
4	0xbe4cd787	-0.20004092
5	0x3d168ab3	0.036753368
6	0x3e39198d	0.18076153
7	0x3d2116f6	0.039328538
8	0xbdefa799	-0.117018886
9	0x3e7b466e	0.24538586
10	0x3eb0603b	0.34448418
11	0xbdfa0a17	-0.12208956
12	0x3dd8013b	0.1054711
13	0x3af99e8f	0.0019044447
14	0xbd015f39	-0.031584952
15	0x3d7e9a8b	0.062159102
16	0x3e841339	0.25795916
17	0x3e00ba23	0.12571006
18	0x3e3baf4e	0.18328592
19	0xbda9903d	-0.082794644
20	0x3dfdde5a	0.12395926
21	0x3dc17ae8	0.09447271
22	0xbcd71a3b	-0.026257625
23	0x3d103bd3	0.035213303
24	0x3e8878ef	0.26654765
25	0x3dbd6d01	0.092493065
26	0xbc0d5403	-0.008625987
27	0xbdb16cdb	-0.08663341
28	0xbe021f89	-0.12707342
29	0xbe814ccb	-0.252539
30	0xbe04e518	-0.12978017
31	0x3df52082	0.11969091
32	0xbe3fabec	-0.18717927
33	0x3e7d57c4	0.24740511
34	0xbe2b2577	-0.1671351
35	0xbe012cc4	-0.12614733
36	0xbdd7141d	-0.10501883
37	0xbcaa8733	-0.020816421
38	0xbde413db	-0.111366
39	0x3e8eb114	0.27869475
40	0x3ed45e9a	0.41478425
41	0xba3d3b5e	-0.0007218624
42	0xbe260742	-0.16213706
43	0xbe1e992f	-0.15488122
44	0x3db5f393	0.08884349
45	0xbdbb5ab5	-0.0914816
46	0x3dc79bb9	0.097464986
47	0xbe1710fc	-0.14752573
48	0xbe00dfd8	-0.1258539
49	0xbe749236	-0.238839
50	0xbd603c4b	-0.054745
51	0x3dea0980	0.11427593
52	0x3d5a40bd	0.053284395
53	0x3e8b2dfe	0.27183527
54	0x3e9552b6	0.29164666
55	0x3e72ba94	0.23703986
56	0xbdf1e8e6	-0.11812
57	0x3e2a356f	0.16621946
58	0xbe6b4c2f	-0.2297828
59	0x3cae04eb	0.02124258
60	0xbe0b9dcb	-0.13634412
61	0xbdd9b031	-0.10629309
62	0x3dfc5ffc	0.12322995
63	0x3e733aac	0.2375285
64	0xbdb990ce	-0.090608224
65	0xbe66488d	-0.22488613
66	0x3e5e6d7f	0.21721457
67	0x3df6559f	0.1202805
68	0x3df8a4ce	0.12140809
69	0xbe82bc25	-0.25534168
70	0xbd0bbdfe	-0.034116738
71	0xbe82ad0b	-0.25522646
72	0x3e03abf4	0.12858564
73	0x3e0562c6	0.1302596
74	0x3e2aeaa8	0.16691077
75	0xbe1354ea	-0.14387861
76	0x3e87a07b	0.26489624
77	0x3dd012b6	0.10159819
78	0x3e91ac95	0.28451982
79	0x3e52ffcf	0.20605396
80	0x3da3fd76	0.08007328
81	0xbd478f19	-0.048720453
82	0xbd03bd88	-0.032163173
83	0x3c92a413	0.017900502
84	0xbe3ef0fe	-0.18646619
85	0xbe241a36	-0.16025624
86	0xbde565ff	-0.11201095
87	0x3d9a281d	0.07527182
88	0xbd085b8f	-0.033290442
89	0xbd0f18f7	-0.034935918
90	0xbce5296b	-0.027973851
91	0x3df69eee	0.12042032
92	0xbe4ece44	-0.20195872
93	0x3e68f2b5	0.22748835
94	0xbe6ae25b	-0.2293791
95	0xbe11a6a1	-0.1422372
96	0xbd6ef00c	-0.058334395
97	0x3e78d39f	0.24299477
98	0x3e230379	0.15919293
99	0xbe80dc56	-0.25168103
100	0x3c95af48	0.018272057
101	0xbe437e69	-0.1909119
102	0xbdf38973	-0.11891451
103	0x3e4f4ee0	0.20244932
104	0x3e8df9fd	0.27729788
105	0xbe6e7ff0	-0.23290992
106	0x3e811980	0.25214767
107	0xbbc22294	-0.005924532
108	0xbc3114b3	-0.010808158
109	0xbe3f10bf	-0.18658732
110	0x3d39cf9a	0.045364
111	0xbe3ee209	-0.18640913
112	0xbea102c3	-0.3144742
113	0xbd32da0e	-0.043664984
114	0xbb88b103	-0.004171492
115	0xbda62d15	-0.081140675
116	0x3d58d678	0.05293891
117	0xbe6ef64b	-0.23336141
118	0xbe7bf842	-0.24606422
119	0xbe4289f2	-0.18997934
120	0x3d54aac8	0.051920682
121	0xbe54ce9c	-0.2078194
122	0x3c9509ba	0.018193115
123	0x3e133c1e	0.14378402
124	0xbd21af2a	-0.03947369
125	0xbdf9536e	-0.12174116
126	0xbd2c3253	-0.04204018
127	0xbe0f710c	-0.14007968
128	0xbd48a291	-0.04898316
129	0xbe3f0ae8	-0.18656504
130	0xbc1ee736	-0.00969868
131	0x3e4fc8a7	0.20291387
132	0x3eaa3aa9	0.3324788
133	0x3e94a122	0.29029185
134	0xbd292deb	-0.041303556
135	0xbe4f6489	-0.20253195
136	0x3ce02e6d	0.027365888
137	0x3bad1364	0.0052818526
138	0x3c6a0232	0.01428275
139	0xbda80a32	-0.082050696
140	0x3d5f0b4d	0.054454137
141	0x3e9d52af	0.30727145
142	0x3e3300fc	0.17480844
143	0x3e694e55	0.22783788
144	0xbe4f6ae6	-0.20255622
145	0x3dd05bfa	0.10173793
146	0xbdc72b8a	-0.09725101
147	0xbe3a3021	-0.18182422
148	0xbe0005fb	-0.12502281
149	0x3ddc09b0	0.10744035
150	0x3dd6dd35	0.10491411
151	0xbe940dd0	-0.28916788
152	0xbda187ff	-0.07887267
153	0xbe0ee9f5	-0.13956435
154	0x3e3b2bb7	0.18278395
155	0x3e410a78	0.1885165
156	0xbda977de	-0.08274816
157	0xbe565972	-0.20932558
158	0x3dec6dc4	0.11544374
159	0xbdcfd24c	-0.10147533
160	0x3df287af	0.11842286
161	0x3be037d3	0.0068425923
162	0x3e631b90	0.22178483
163	0x3e8c6bfd	0.2742614
164	0x3e2c2b4e	0.16813394
165	0x3d61851f	0.055058595
166	0xbe5e8500	-0.21730423
167	0x3e232d58	0.15935266
168	0xbe515e39	-0.204461
169	0xbde0b0dc	-0.10971233
170	0xbe191b08	-0.14951718
171	0xbe414905	-0.18875511
172	0xbcad3af5	-0.021146277
173	0x3e7927c7	0.2433158
174	0xbcc4e2b5	-0.024033884
175	0x3d9187c8	0.07105976
176	0x3eb1986e	0.34686607
177	0x3e852b3e	0.26009554
178	0x3db8a9e8	0.09016782
179	0xbd3699cb	-0.044580262
180	0x3e1f793a	0.15573588
181	0x3e3a4826	0.18191585
182	0x3e87a292	0.2649122
183	0x3dae1558	0.08500165
184	0xbd94b4a3	-0.07261016
185	0xbd181fc3	-0.037139665
186	0xbc70fc41	-0.0147085795
187	0x3e804de7	0.25059435
188	0xbdd87e62	-0.105709806
189	0x3e00c77c	0.12576097
190	0x3de806cb	0.11329421
191	0xbd900771	-0.07032669
192	0xbdd519a8	-0.10405284
193	0xbe8ef1d0	-0.27918863
194	0x3e40b6f0	0.18819785
195	0xbd51f6ba	-0.051260687
196	0x3e6553c1	0.22395231
197	0x3ceb30ea	0.028709847
198	0xbde2a7c3	-0.11067154
199	0xbe857e4d	-0.26072922
200	0xbe425f85	-0.1898175
201	0x3e1816bc	0.14852422
202	0x3d4cbe74	0.049986318
203	0xbe78fbc5	-0.24314792
204	0xbe848255	-0.25880685
205	0x3e33f617	0.17574345
206	0x3e90c8b1	0.28278115
207	0x3e76281a	0.24038735
208	0x3e814ce9	0.2525399
209	0xbe804401	-0.25051883
210	0xbbad934b	-0.0052970997
211	0xbbefef44	-0.007322224
212	0xbd93a50b	-0.07209214
213	0x3df93f74	0.12170306
214	0xbe434790	-0.19070268
215	0xbd484246	-0.04889133
216	0xbdb8f670	-0.09031379
217	0x3d35c6c5	0.044379015
218	0xbe70510b	-0.23468415
219	0xbde0f949	-0.10985047
220	0x3e18eac2	0.14933303
221	0xbe1dc32b	-0.15406482
222	0x3d57b3e6	0.0526618
223	0x3ed2cd1d	0.41172114
224	0x3e593e33	0.21215133
225	0xbe6ebdd2	-0.23314598
226	0xbe6f1d86	-0.23351106
227	0x3db5e777	0.08882039
228	0x3d34b7c8	0.04412058
229	0x3e03a95f	0.12857579
230	0x3e8c944d	0.27456895
231	0x3eb0cb50	0.34530115
232	0x3d161774	0.03664346
233	0x3bc11e77	0.0058935243
234	0x3d161cd4	0.036648586
235	0x3e548b83	0.20756344
236	0xbe094f67	-0.13409196
237	0xbe2b2fec	-0.167175
238	0xbe206ec7	-0.15667258
239	0xbd1c8736	-0.038214885
240	0xbc8b9ba9	-0.017041998
241	0xbe0fdfb3	-0.14050178
242	0x3e37e16b	0.17957084
243	0x3dc494d3	0.095986985
244	0xbe57d663	-0.21077876
245	0x3e165470	0.14680648
246	0xbe0cbc38	-0.13743675
247	0xbd8724ed	-0.0659884
248	0xbe3c3b4b	-0.18381993
249	0xbc4eba7d	-0.012617704
250	0x3e1b91eb	0.15192382
251	0xbe34a044	-0.17639261
252	0x3ea51ce3	0.322486
253	0x3ea75ec0	0.32689476
254	0xbe512223	-0.20423178
255	0xbddeb9e9	-0.10875303

encoder.conv1.0.bias f4 [40]
0	0x3c7b1ba2	0.015326412
1	0xbe45fb90	-0.19334245
2	0x3d90b510	0.07065785
3	0xbd4b98aa	-0.04970614
4	0x3dc88d3a	0.09792562
5	0xbe9a0fed	-0.30090275
6	0x3e04df6b	0.12975852
7	0xbce885a1	-0.028384032
8	0xbe82aaa9	-0.25520828
9	0xbe82228e	-0.25416988
10	0x3e0e41ea	0.13892332
11	0xbe4eab0d	-0.20182438
12	0xbdee580a	-0.11637886
13	0xbe3a226e	-0.18177196
14	0xbe17f9f9	-0.14841451
15	0xbda44d7b	-0.08022591
16	0x3d5b9ddf	0.053617354
17	0xbe933929	-0.28754547
18	0xbcea86f0	-0.028628796
19	0xbe2fcef7	-0.17168795
20	0x3d37e2d2	0.044894047
21	0x3dc526cf	0.09626543
22	0xbda9d016	-0.08291642
23	0xbd229e6b	-0.03970186
24	0xbc828e18	-0.015936896
25	0xbe3b5ddb	-0.18297522
26	0xbe01bcc2	-0.12669662
27	0xbeabad20	-0.3353052
28	0xbe82fdf7	-0.25584385
29	0xbd9e9ca8	-0.077447236
30	0x3ce5e994	0.02806548
31	0x3c259d73	0.01010834
32	0xbe65fd97	-0.22460018
33	0xbdf45362	-0.119299665
34	0xbcd1f210	-0.02562812
35	0xbde4a46d	-0.11164174
36	0x3d094be4	0.03351964
37	0xbe95b4b4	-0.29239428
38	0xbe9bc1b0	-0.3042121
39	0xbead9db7	-0.3390939

encoder.prefilt_layers.0.weight f4 [40, 40, 15]
0	0xbcc6e564	-0.024279304
1	0xbda7b53b	-0.08188864
2	0x3cce7845	0.025203833
3	0xbc4b5f5c	-0.012412872
4	0xbdb6c41b	-0.08924123
5	0xbda438a6	-0.08018617
6	0x3c23348b	0.009961258
7	0xbcea1b79	-0.028577553
8	0x3d3f73db	0.046741348
9	0x3d2f9956	0.042870842
10	0x3d3e4c52	0.046459503
11	0xbc897b15	-0.016782323
12	0x3c1b9286	0.009495383
13	0xbc156f22	-0.009120734
14	0xbd4de146	-0.050263666
15	0x3d5865ef	0.052831586
16	0xbc6e81b7	-0.014557294
17	0xb90c80cb	-0.0001339942
18	0x3d0e8c09	0.034801517
19	0x3bfb2582	0.0076643834
20	0xbd21ed34	-0.039532855
21	0xbd8221d4	-0.063541085
22	0x3c090a8c	0.008364331
23	0x3c203611	0.009778515
24	0x3d15c87c	0.03656815
25	0xbd381bf0	-0.04494852
26	0xbce2c901	-0.027683737
27	0xbd88e56f	-0.06684386
28	0xbca7d381	-0.020486595
29	0xbd9514a7	-0.0727933
30	0xba697ade	-0.0008906553
31	0xbcef92cb	-0.029244801
32	0x3d769286	0.06019833
33	0x3d5c67b2	0.05380983
34	0xbae42171	-0.0017404986
35	0xbd058b17	-0.03260335
36	0x3bbb07e5	0.005707728
37	0x3cde567e	0.027140852
38	0x3da495fd	0.080364205
39	0x3d5485a7	0.051885273
40	0x3c48f08e	0.012264384
41	0xbd5c0fea	-0.053726114
42	0xbd2bae7a	-0.04191444
43	0xbd339fec	-0.043853685
44	0xbcb2ee72	-0.021842215
45	0x3c76ce6d	0.015063864
46	0xbd6987bd	-0.057014216
47	0xbd0a140f	-0.033710536
48	0xbcd33e09	-0.025786417
49	0x3c955337	0.018228156
50	0xbd109193	-0.03529508
51	0xbca16bc3	-0.019704705
52	0xbd1cf5fc	-0.038320526
53	0x3d2c59e4	0.042077914
54	0xbc033bbf	-0.00800985
55	0x3d0c81cb	0.034303468
56	0xbd1f294d	-0.038857747
57	0xbd51e2c7	-0.051241662
58	0xbdcff5a7	-0.10154276
59	0xbc1c029d	-0.009522107
60	0xbd51bc80	-0.05120516
61	0x3cd406be	0.025882121
62	0x3dae6923	0.08516147
63	0x3cc3ad34	0.0238863
64	0x3d4b9f7d	0.049712647
65	0x3c3cf432	0.01153283
66	0x3d20efd3	0.039291214
67	0xbda97d3f	-0.08275842
68	0xbdb646af	-0.089002006
69	0xbd512f40	-0.05107045
70	0x3cd7a6cf	0.026324658
71	0x3d38b4d5	0.04509433
72	0x3d1d98f8	0.03847596
73	0x3c566a67	0.013086892
74	0x3d0186aa	0.031622566
75	0x3ae4566e	0.0017420778
76	0x3d275d75	0.040860612
77	0x3d836d04	0.064172775
78	0x3d806fae	0.06271301
79	0x3dc096aa	0.09403737
80	0x3d9f6f5a	0.077849105
81	0x39912bf8	0.00027689314
82	0x3c73ae74	0.014873136
83	0xbc92ccae	-0.017919865
84	0xbd37e1c7	-0.044893052
85	0xbd9a9716	-0.075483486
86	0xbdb56abf	-0.08858251
87	0xbd92a4e5	-0.071603574
88	0xbc78738a	-0.015164265
89	0x3999ed84	0.00029359397
90	0xbd61cda5	-0.05512776
91	0x3d6d8aea	0.057993807
92	0x3d94dffa	0.07269283
93	0x3cf86990	0.030323774
94	0x3da71e47	0.08160072
95	0x3d7c9071	0.061661188
96	0x3d297480	0.04137087
97	0xbdb871a0	-0.09006047
98	0xbd202a03	-0.039102565
99	0x3c4421b7	0.011970929
100	0x3db566ef	0.08857524
101	0x3d61e629	0.05515114
102	0x3d116a1b	0.03550158
103	0xbc1e55b3	-0.009663987
104	0xbd58243c	-0.05276893
105	0xbcf7a561	-0.030230226
106	0xbca8d997	-0.020611567
107	0xbce27242	-0.027642373
108	0xbd7deede	-0.06199538
109	0x3ba6046c	0.005066445
110	0xbcb120eb	-0.021622142
111	0xbbb2e275	-0.0054591247
112	0x3a3632c9	0.00069503166
113	0xbc978ecd	-0.01850071
114	0xbd7b906e	-0.061417036
115	0xbd13b243	-0.036058675
116	0xbd745e09	-0.05965999
117	0xbd16d389	-0.03682283
118	0xbcb1d462	-0.021707717
119	0xbaf57406	-0.0018726594
120	0xbddedc17	-0.108818226
121	0x38a7dea2	8.004649e-05
122	0xbd5c5dad	-0.053800274
123	0xbdd15b48	-0.10222489
124	0xbd1d4245	-0.038393278
125	0x3d81d20d	0.06338892
126	0x3ded84a7	0.11597567
127	0x3c846e3c	0.016165845
128	0xbda83700	-0.082136154
129	0xbdf41e73	-0.1191987
130	0xbd880835	-0.0664219
131	0x3d0b20ca	0.033966817
132	0x3b87886c	0.004136136
133	0x3d8beb38	0.06831974
134	0x3db91c46	0.09038596
135	0x3d35063f	0.04419541
136	0xbc2ec662	-0.010667415
137	0x3d9ef8f9	0.077623315
138	0x38081644	3.2445663e-05
139	0xbd226f89	-0.03965715
140	0xbd1554da	-0.036457874
141	0xbd30c207	-0.04315379
142	0xbd64c171	-0.055848543
143	0xbdce4f06	-0.10073666
144	0xbdc07f81	-0.093993194
145	0xbc6caef0	-0.014446005
146	0x3d42476c	0.047431394
147	0x3d9ad035	0.075592436
148	0x3d09ba68	0.033625036
149	0xbdf81bbe	-0.121146664
150	0xbc9cb667	-0.019129945
151	0x3c997924	0.018734522
152	0xbd1c8239	-0.038210128
153	0xbb0e9470	-0.0021755956
154	0xbb89186b	-0.004183819
155	0xbd40e253	-0.04709084
156	0xbc3c37d3	-0.011487919
157	0xbaa3b18c	-0.0012488826
158	0xbcb26a67	-0.021779252
159	0x3c6f0e48	0.014590807
160	0xbd339844	-0.043846384
161	0xbce80d61	-0.028326692
162	0x3cff110a	0.031136055
163	0x3b8efa86	0.004363361
164	0x3d8f3809	0.0699311
165	0xbd597a2c	-0.053095028
166	0xbd72005e	-0.05908238
167	0xbdae9d83	-0.08526137
168	0xbd5bf8a5	-0.053703923
169	0xbd27e411	-0.040988985
170	0x3c88e7b1	0.016712042
171	0x39a1d446	0.0003086647
172	0x3da3f133	0.080049895
173	0x3c4b84c0	0.012421787
174	0xbce3d432	-0.027811144
175	0xbd1f44ba	-0.038883902
176	0xbd9c0c92	-0.07619585
177	0x3ac53cb6	0.0015048
178	0xbd187395	-0.037219603
179	0x3de52c0e	0.111900434
180	0xbc380cc2	-0.01123351
181	0x3bf43ee1	0.007453785
182	0x3cd9641c	0.026536994
183	0x3d8703fa	0.06592555
184	0x3c899266	0.016793441
185	0xbc8b8f35	-0.01703606
186	0xbc0aa2d0	-0.008461669
187	0x3d3a676b	0.045508783
188	0x3cb285c5	0.021792302
189	0xbcb24868	-0.021763042
190	0x3c7519ca	0.014959762
191	0x3bb5907e	0.0055409065
192	0x3a8a7242	0.0010562616
193	0xbd887f3b	-0.06664892
194	0xbd144634	-0.036199763
195	0xbd28dca4	-0.041226044
196	0xbcb66ac6	-0.02226771
197	0xbbfacf78	-0.0076541267
198	0xbc75ef02	-0.015010597
199	0xbcfbafdb	-0.030723503
200	0xbca81b34	-0.020520784
201	0x3d30de3c	0.04318069
202	0x3da79296	0.08182256
203	0x3c88fe7c	0.01672291
204	0xbde77b74	-0.11302844
205	0xbcecbc81	-0.02889848
206	0x3d380eaf	0.04493588
207	0x3d17cc2b	0.037059944
208	0x3c9aeff3	0.018913245
209	0x3cd5a2fe	0.026078697
210	0xbd614ef7	-0.055006947
211	0xbcaa2adf	-0.020772396
212	0xbc5845aa	-0.013200203
213	0x3d3a0abc	0.045420393
214	0x3c1df7a6	0.0096415635
215	0x3d3a1363	0.045428645
216	0x3d7f1dbb	0.062284213
217	0xbdc2fd85	-0.09521011
218	0xbe36b3cb	-0.17842023
219	0x3c4107a3	0.011781606
220	0x3d72708c	0.059189364
221	0x3d78c404	0.06073381
222	0x3d3bdb74	0.045863584
223	0x3d8a639e	0.06757282
224	0xbc2be068	-0.010490514
225	0x3ce4a5bc	0.02791106
226	0xbcc30ed8	-0.023810789
227	0x3d82b528	0.06382209
228	0x3aa33fd7	0.0012454939
229	0xbb9e406e	-0.004829458
230	0xbd72850d	-0.05920892
231	0xbd7f47e8	-0.062324435
232	0x3c0f43a3	0.008744153
233	0xbcd62446	-0.026140343
234	0xba8607d2	-0.0010225719
235	0xbce61db7	-0.028090341
236	0x3d136e5e	0.035993926
237	0x3d64540f	0.055744227
238	0x3d5f240e	0.054477744
239	0x3d57a022	0.05264295
240	0xbca34403	-0.019929891
241	0xbba5d2fc	-0.0050605517
242	0xbc0c9ff7	-0.0085830605
243	0x3c966327	0.018357826
244	0xbd26047c	-0.04053162
245	0x3d54f730	0.05199355
246	0x3dcf3ce8	0.10119039
247	0x3d462de4	0.04838361
248	0xbc88d179	-0.016701447
249	0xbdc2cf07	-0.095121436
250	0x3d49baf3	0.049250554
251	0xbbe02cd8	-0.0068412833
252	0xbd0b9e4e	-0.034086518
253	0x3ad1c220	0.0016003288
254	0xbae3873e	-0.0017359031
255	0xbd35033b	-0.044192534

encoder.prefilt_layers.0.bias f4 [40]
0	0x3ce16e44	0.027518399
1	0x3c9b044e	0.018922951
2	0xbd837378	-0.06418508
3	0xbd95b545	-0.07309965
4	0x3c66b3d8	0.014080964
5	0xbd894bdd	-0.06703923
6	0xbd69c48c	-0.057072207
7	0x3c4955a5	0.012288486
8	0xbd52f249	-0.051500592
9	0x3ac3f0ff	0.0014949142
10	0xbd1e455c	-0.038640365
11	0xbb25b1b0	-0.0025282912
12	0xbd0e3e31	-0.03472728
13	0x3d6d4171	0.057923738
14	0x39ee9520	0.00045506004
15	0xbc9a44ca	-0.01883163
16	0x3bc35d63	0.0059620603
17	0x3ba52c03	0.005040647
18	0xbd7bf974	-0.061517194
19	0x3d5f9234	0.05458279
20	0xbd0cf382	-0.034411915
21	0x3cd58c80	0.026067972
22	0xbd92157e	-0.071330056
23	0x3baf8039	0.0053558615
24	0xbb895268	-0.004190732
25	0x3d6af303	0.05736066
26	0xbd322f46	-0.043502115
27	0xbcd8c981	-0.026463272
28	0xbd5c30ac	-0.053757355
29	0x3d5eb281	0.054369453
30	0x3d8d962b	0.06913408
31	0x3d1d8796	0.038459383
32	0xbd897559	-0.067118354
33	0xbbfb4579	-0.007668194
34	0xbb246742	-0.002508596
35	0xbd7207f8	-0.05908963
36	0xbd025827	-0.03182235
37	0xbd559758	-0.052146286
38	0x3cadbdd9	0.02120869
39	0x3b9596cc	0.0045650955

encoder.conv_layers.0.weight f4 [30, 40, 1]
0	0xbdc77f5c	-0.09741089
1	0xbe727dff	-0.23680876
2	0x3be38a80	0.0069440007
3	0x3e52d28f	0.20588134
4	0xbe832829	-0.25616577
5	0x3e1e7abb	0.15476505
6	0x3dc83505	0.09775738
7	0x3d6a2ca8	0.057171494
8	0x3e2dad7e	0.16960713
9	0x3e65ec41	0.22453405
10	0xbba4ca13	-0.005028972
11	0x3d199bb5	0.03750201
12	0x3cddb488	0.027063623
13	0xbd7c3fd3	-0.061584305
14	0xbe62c925	-0.22147043
15	0x3e73a64b	0.23793904
16	0xbe54f782	-0.20797542
17	0x3e77e7f0	0.24209571
18	0x3e5656da	0.20931569
19	0xbe350e95	-0.17681344
20	0xbb990464	-0.004669713
21	0xbdc734c5	-0.09726862
22	0x3e0fefb5	0.14056285
23	0xbbfd2902	-0.007725836
24	0x3c9dbe7b	0.019255867
25	0xbd92fa0c	-0.07176599
26	0xbcae949f	-0.021311102
27	0x3e2d6411	0.16932704
28	0x3dc4e131	0.09613264
29	0xbe77c7ee	-0.24197361
30	0xbe4da7ca	-0.20083538
31	0xbe88c8cf	-0.26715705
32	0x3e58b82e	0.21164009
33	0x3e1a58cc	0.15072936
34	0xbe414194	-0.18872672
35	0x3e8ac0b9	0.2710016
36	0x3a8ca1c4	0.0010729362
37	0x3e4c0ff7	0.19927965
38	0xbd74360a	-0.05962185
39	0x3cbce0e5	0.023056457
40	0xbe86e354	-0.26345313
41	0xbe6a207c	-0.22863954
42	0x3d77ada0	0.060468316
43	0x3e73a96e	0.23795101
44	0xbb009ca8	-0.0019624624
45	0x3e5db551	0.21651198
46	0x3e4c6be3	0.1996303
47	0x3d55b0d9	0.05217061
48	0x3de66a62	0.1125076
49	0x3dba1821	0.090866335
50	0x3e56f570	0.20992064
51	0x3e3d9edc	0.18517631
52	0x3d944a5a	0.07240744
53	0xbe958935	-0.29206243
54	0xbe342f4f	-0.17596172
55	0x3e5f7d3f	0.21825121
56	0xbe2c3305	-0.16816337
57	0x3e637fa6	0.22216663
58	0xbd561b43	-0.052272093
59	0xbe2e3141	-0.17010976
60	0x3e6b194a	0.22958866
61	0xbd4b1694	-0.04958208
62	0x3e588138	0.21143043
63	0xbd33e5c6	-0.0439203
64	0xbe15bb5a	-0.1462225
65	0xbe6d802e	-0.23193428
66	0x3e4ddda6	0.20104083
67	0x3d8378f5	0.06419555
68	0x3def3a23	0.116810106
69	0xbea038fa	-0.3129347
70	0xbe1f11d3	-0.15534143
71	0xbe7cfd1a	-0.24705926
72	0x3d866a47	0.065632395
73	0x3d788799	0.06067619
74	0xbcac828d	-0.021058345
75	0x3e7e09f5	0.24808486
76	0x3e641649	0.22274126
77	0x3be44d48	0.0069672205
78	0xbe78a48e	-0.24281523
79	0x3e83067d	0.25590888
80	0xbd0dbacb	-0.034601968
81	0x3c24df80	0.010063052
82	0x3e481e74	0.19542867
83	0x3e10b341	0.1413088
84	0xbd33e953	-0.043923687
85	0x3e5e6e20	0.21721697
86	0x3e8160f7	0.2526929
87	0x3d228882	0.039680965
88	0x3e926ba9	0.28597763
89	0x3e70c193	0.23511343
90	0x3ca3a56b	0.019976338
91	0x3e6220e3	0.22082858
92	0x3e73f59f	0.23824166
93	0xbe69cb94	-0.22831565
94	0xbdea0304	-0.114263564
95	0x3df36d8c	0.11886129
96	0xbd77192f	-0.06032675
97	0x3d9c5a87	0.07634454
98	0x3deecf21	0.116606005
99	0xbd48f250	-0.049059212
100	0x3ddbb32f	0.10727536
101	0xbe7aacea	-0.24480024
102	0x3dabb462	0.08384015
103	0x3c541df2	0.012946593
104	0xbe583f43	-0.21117882
105	0xbe2a9f32	-0.1666229
106	0xbb464fab	-0.0030259888
107	0x3c716c9b	0.014735366
108	0xbcbc2c07	-0.022970213
109	0xbe2b3927	-0.1672102
110	0xbe8e7a59	-0.2782772
111	0xbe1c4273	-0.15259723
112	0x3e1aab9c	0.15104526
113	0x3daf83f4	0.0857009
114	0xbc43212c	-0.011909764
115	0x3e80c5ab	0.2515081
116	0x3d9da5bf	0.07697629
117	0x3e677b07	0.22605525
118	0xbe64c005	-0.22338875
119	0xbcd5b306	-0.026086342
120	0xbd0680e9	-0.032837782
121	0xbe31321f	-0.17304276
122	0x3e5c71c0	0.21527767
123	0x3df17fc4	0.117919475
124	0xbe7109b1	-0.23538853
125	0x3e09af3d	0.13445754
126	0x3d9791b0	0.074008346
127	0x3e2cfb38	0.16892707
128	0x3e278d4b	0.16362493
129	0x3e2aeaad	0.16691084
130	0x3dfb7cff	0.122797005
131	0x3cb214d9	0.021738457
132	0xbd356185	-0.044282455
133	0xbe02dfd4	-0.12780696
134	0xbd675274	-0.056475118
135	0x3d0b9536	0.034077846
136	0xbe6ea909	-0.2330667
137	0x3b9e0902	0.004822851
138	0x3e57fc2c	0.2109229
139	0xbe3e99f6	-0.18613419
140	0x3e2a5a09	0.16635908
141	0xbdb80d14	-0.089868695
142	0x3e5031c3	0.20331483
143	0xbe1eefa2	-0.155211
144	0xbe8492bc	-0.258932
145	0xbe1ef88a	-0.15524498
146	0x3ddbc78e	0.107314214
147	0x3e4372af	0.19086717
148	0x3da4ae16	0.08041017
149	0xbe43e266	-0.19129333
150	0xbcc7c8e9	-0.024387794
151	0xbe84a67e	-0.25908273
152	0x3e1c2218	0.1524738
153	0x3ca132d0	0.01967755
154	0xbe5bb071	-0.21454026
155	0x3e286f2e	0.16448662
156	0x3e609133	0.21930389
157	0x3e77ad90	0.24187303
158	0xbe79f38b	-0.2440931
159	0x3deace7a	0.114651635
160	0x3e76c905	0.2410012
161	0x3ddb682e	0.1071323
162	0xbcba4484	-0.022737749
163	0xbd752c98	-0.05985698
164	0xbcfb78eb	-0.030697307
165	0xbdbd3811	-0.092392094
166	0xbe3bdb76	-0.18345436
167	0xbe7dd819	-0.24789466
168	0x3d01597f	0.03157949
169	0xbd6da9b5	-0.058023173
170	0xbd85ff4b	-0.06542834
171	0xbe02bd4a	-0.1276752
172	0xba95904f	-0.0011410805
173	0x3e5ac26b	0.21363227
174	0x3df6e349	0.1205507
175	0xbe86b103	-0.26306924
176	0x3dfaa38a	0.12238224
177	0xbe87f738	-0.265558
178	0xbccf948d	-0.02533939
179	0xbc5e8ae9	-0.013582923
180	0xbe12088a	-0.1426107
181	0x3e1ec001	0.15502931
182	0x3b9305da	0.0044867815
183	0x3e69703a	0.22796717
184	0x3e6016ba	0.2188367
185	0xbc45cbe3	-0.012072536
186	0xbdec0f46	-0.11526351
187	0xbe7d9159	-0.24762477
188	0xbcaef234	-0.021355726
189	0x3e4ee3cf	0.2020409
190	0x3da66984	0.08125594
191	0x3e0a7725	0.13522013
192	0xbe123e14	-0.14281493
193	0xbcfb1cad	-0.030653322
194	0x3dbc8cf2	0.09206571
195	0xbddb7111	-0.10714925
196	0xbe0a6908	-0.13516629
197	0x3c89e445	0.01683248
198	0x3e6a43c5	0.22877415
199	0xbe794697	-0.24343334
200	0xbe6c1869	-0.23056187
201	0xbde8cb8e	-0.1136695
202	0x3e3640e3	0.1779819
203	0x3e5a9830	0.21347117
204	0xbd40d4fc	-0.047078118
205	0x3e0b889a	0.13626328
206	0x3e745265	0.23859556
207	0x3dd8b54d	0.105814554
208	0x3e8de03f	0.2771015
209	0x3e7cda67	0.24692689
210	0x3e9ca3c7	0.30593702
211	0x3df16fd3	0.11788907
212	0x3e310e11	0.17290522
213	0xbdb446ad	-0.08802543
214	0xbdaf2614	-0.08552185
215	0x3e5f92c4	0.2183333
216	0xbd9e8f52	-0.0774218
217	0x3e583368	0.2111336
218	0x3e1f6441	0.15565588
219	0xbdad5fc1	-0.08465529
220	0x3d48ee3a	0.049055316
221	0xbe8d694f	-0.27619407
222	0x3cfd336d	0.03090831
223	0xbe8e6a44	-0.2781545
224	0xbe4d1870	-0.20028853
225	0xbcfcf68e	-0.030879285
226	0x3dbf02ed	0.0932673
227	0x3ca88ffa	0.020576466
228	0x3d9d2c01	0.07674409
229	0xbd8fce06	-0.07021718
230	0xbe3b9fb4	-0.1832264
231	0xbe489d7b	-0.19591324
232	0x3e9a8f5a	0.30187494
233	0x3e78665e	0.242578
234	0xbe61ae94	-0.22039253
235	0x3e757d61	0.2397361
236	0x3d93ead8	0.07222527
237	0x3e9d0146	0.30665034
238	0xbe716c9d	-0.23576589
239	0x3df8885a	0.12135382
240	0x3d6cff85	0.05786087
241	0x3e3c23e4	0.18373066
242	0xbe2492bc	-0.160716
243	0xbe5dd7df	-0.2166438
244	0x3b9e09b1	0.0048229326
245	0xbe011043	-0.1260386
246	0xbd9031cc	-0.07040748
247	0xbe5626e0	-0.20913267
248	0xbdc5d423	-0.096596025
249	0xbe354206	-0.17700967
250	0xbd05c99b	-0.03266297
251	0xbd9ed446	-0.07755332
252	0x3d42efac	0.04759185
253	0x3cbc148b	0.022959014
254	0xbcab0d92	-0.020880494
255	0xbdfb30fb	-0.12265202

encoder.conv_layers.0.bias f4 [30]
0	0x3d6b188e	0.057396464
1	0x3d0caf56	0.0343469
2	0xbd8f9165	-0.07010154
3	0xbd2711e9	-0.040788565
4	0x3e36dde2	0.17858079
5	0xbe2852ca	-0.16437832
6	0xbd5b435e	-0.053531043
7	0xbd612d6f	-0.05497497
8	0xbe065a33	-0.13120346
9	0xbc35e058	-0.011100851
10	0xbe48f944	-0.19626337
11	0xbd4462d0	-0.047945797
12	0xbdae75b8	-0.08518547
13	0xbb230086	-0.0024872138
14	0xbd244545	-0.040105123
15	0xbd641d0b	-0.05569176
16	0x3dc41b45	0.09575514
17	0x3d814eab	0.06313833
18	0x3e0b0b53	0.13578539
19	0x3dcce0e5	0.10003833
20	0x3d8fa47e	0.07013796
21	0x3c952af9	0.018208968
22	0x3e26996f	0.16269468
23	0x3e0cf032	0.13763502
24	0x3de0dd9f	0.10979771
25	0x3dab6ff4	0.08370963
26	0xbce8ab7b	-0.02840208
27	0x3dad1d47	0.0845285
28	0xbcfa290f	-0.030537156
29	0xbe2c0282	-0.16797832

encoder.conv_layers.3.weight f4 [30, 30, 1]
0	0xbda6bf86	-0.08141999
1	0x3e2ba1c6	0.1676093
2	0x3e84c54d	0.2593178
3	0xb9b03725	-0.00033610422
4	0xbd51d0d2	-0.051224537
5	0xbd16e914	-0.036843374
6	0xbed50dd0	-0.416121
7	0xbe26bea3	-0.1628366
8	0x3e83a1ca	0.25709373
9	0x3e48ce80	0.19610023
10	0x3e703fdb	0.23461859
11	0x3e7c83fa	0.2465972
12	0xbebe371b	-0.37151417
13	0x3d112ff8	0.035446137
14	0xbca12dcb	-0.019675156
15	0xbe786718	-0.24258077
16	0x3d94c5c2	0.07264282
17	0xbe408673	-0.18801288
18	0xbea5bed4	-0.32372153
19	0x3d8cfc45	0.06884054
20	0x3e39312a	0.18085161
21	0xbe9fd15a	-0.3121441
22	0xbdda4885	-0.10658363
23	0xbb1aeb3e	-0.002363875
24	0x3da6f6c8	0.081525385
25	0xbdd37967	-0.1032589
26	0xbe93116b	-0.28724226
27	0xbe689820	-0.22714281
28	0x3e3d40dc	0.18481773
29	0xbd6f250c	-0.05838494
30	0x3e248efb	0.16070168
31	0x3dabe214	0.0839273
32	0x3e8e9416	0.27847356
33	0x3e6e154b	0.2325031
34	0xbea0e573	-0.31425056
35	0xbd9801f0	-0.074222445
36	0xbcf59dc4	-0.029982455
37	0xbe072ef8	-0.13201511
38	0x3e19a8f0	0.15005851
39	0xbdd7bd9b	-0.10534211
40	0x3d90aae3	0.07063844
41	0xbda02f7b	-0.07821556
42	0xbe3fb840	-0.1872263
43	0x3e70805d	0.23486467
44	0xbd223a28	-0.039606243
45	0xbde2a267	-0.11066132
46	0x3e69bbf4	0.22825605
47	0xbdfa2230	-0.12213552
48	0xbea478ba	-0.32123357
49	0x3de198cc	0.11015472
50	0x3e3e81a5	0.18604143
51	0xbe1fa68c	-0.15590876
52	0xbe19aabf	-0.1500654
53	0x3e826285	0.2546579
54	0x3dfeff20	0.12451005
55	0xbe34d7b0	-0.17660403
56	0xbea722a3	-0.32643613
57	0xbd1f1b19	-0.0388442
58	0x3bab90ec	0.005235782
59	0x3d2731b9	0.040818904
60	0xbe489100	-0.19586563
61	0xbe1f3e01	-0.15550996
62	0xbe4cd3d1	-0.20002677
63	0xbe9469f1	-0.28987077
64	0xbb039566	-0.0020078062
65	0xbeb3ceb0	-0.35118628
66	0x3e5c28db	0.2149996
67	0x3e904f42	0.2818547
68	0xbe9f6ab5	-0.31136099
69	0xbbcda7f8	-0.006276127
70	0xbe8d5710	-0.27605486
71	0xbeb5c4b7	-0.35501644
72	0x3dc85a61	0.097828634
73	0xbe10182b	-0.1407172
74	0xbe30566f	-0.17220472
75	0x3dd2b1e5	0.10287837
76	0xbd90a72b	-0.07063135
77	0x3e8558e2	0.26044375
78	0x3e0a6799	0.13516082
79	0xbead6646	-0.3386709
80	0xbd65e139	-0.056122992
81	0x3e31115f	0.17291783
82	0x3dafc7ef	0.08583056
83	0xbdb47772	-0.08811845
84	0xbe07e73a	-0.132718
85	0x3e95e0df	0.29273126
86	0xbdad9751	-0.08476127
87	0xbd41c407	-0.047306087
88	0xbe8a53c8	-0.27017045
89	0xbe91c790	-0.28472567
90	0x3d1ea67c	0.03873299
91	0xb971463a	-0.00023009712
92	0x3e5057ab	0.20345943
93	0xbcc68a77	-0.024235947
94	0xbe819019	-0.2530525
95	0x3d6e58c1	0.05819011
96	0xbd6c2226	-0.057649754
97	0xbdfebc34	-0.12438241
98	0x3e14b35a	0.14521542
99	0x3e67ef33	0.22649841
100	0x3e4e5aed	0.20151873
101	0x3e4c59c7	0.19956122
102	0xbde8ca2c	-0.11366686
103	0xbd02d09e	-0.031937234
104	0x3e628113	0.2211955
105	0xbe4fcf64	-0.20293957
106	0x3e0a8d69	0.13530506
107	0xbebcc245	-0.36866966
108	0xbda1d120	-0.079012156
109	0x3da62b9a	0.08113785
110	0xbd8edf08	-0.069761336
111	0xbe6aa78c	-0.22915477
112	0xbdfe9713	-0.12431159
113	0x3e73644d	0.2376873
114	0x3e59e49a	0.21278611
115	0xbebe31db	-0.37147412
116	0xbea92cf7	-0.33042118
117	0xbd9624a3	-0.07331207
118	0x3e386185	0.18005951
119	0x3e1d5d12	0.15367535
120	0x3e2f32e6	0.1710926
121	0x3d7cd137	0.06172296
122	0x3e1bf7d2	0.15231255
123	0x3d5977e6	0.05309286
124	0xbd0e9152	-0.034806557
125	0x3e4e05ec	0.20119447
126	0xbe7d0893	-0.24710302
127	0xbd9ebadf	-0.077504866
128	0x3e86b529	0.2631009
129	0x3d9e32ff	0.077245705
130	0x3e41b373	0.1891611
131	0xbd231bae	-0.03982132
132	0xbe33a892	-0.17544773
133	0x3d0a68dd	0.03379141
134	0x3e5b1674	0.21395284
135	0xbe895e63	-0.26829824
136	0x3e871abe	0.2638759
137	0xbd91904b	-0.071076
138	0xbd9b70f5	-0.07589904
139	0xbd4f418f	-0.05059963
140	0xbcdba025	-0.026809761
141	0xbe1c9248	-0.15290177
142	0xbe94a0d6	-0.29028958
143	0x3e714bc4	0.23564059
144	0x3e00f4f9	0.1259345
145	0xbe8cc451	-0.27493528
146	0xbe6ad121	-0.22931339
147	0xbea986f0	-0.33110762
148	0x3dfcce6f	0.123440616
149	0x3e47213e	0.19446275
150	0x3e09aae3	0.13444094
151	0x3e1a9d2d	0.1509902
152	0x3e175d7b	0.14781754
153	0x3e2bca88	0.16776478
154	0xbe74e472	-0.2391527
155	0xbcb1b893	-0.021694457
156	0xbdd2454a	-0.10267122
157	0xbe9738ef	-0.29535624
158	0xbca6cfa6	-0.020362686
159	0x3e1df675	0.15426047
160	0x3da6d2e1	0.08145691
161	0x3ddf4567	0.10901909
162	0xbeb3c4aa	-0.3511098
163	0xbcf69dd2	-0.030104551
164	0x3e049212	0.12946346
165	0xbd940c4d	-0.07228909
166	0x3e1f8533	0.15578155
167	0xbea81f8c	-0.32836568
168	0xbeab2a57	-0.3343074
169	0x3e73c408	0.23805249
170	0x3e237225	0.15961511
171	0xbe9d072b	-0.3066953
172	0xbea6e03a	-0.32592946
173	0x3dca5821	0.098800905
174	0x3e44f8c8	0.19235528
175	0xbe05129f	-0.12995385
176	0xbdb02d16	-0.086023495
177	0xbea57b18	-0.32320476
178	0x3d932935	0.07185594
179	0x3e569251	0.20954253
180	0xbe8a3819	-0.26995924
181	0xbe630ad2	-0.22172096
182	0xbe92bfb8	-0.28661895
183	0xbe61f37f	-0.22065543
184	0x3e388909	0.18021025
185	0x3c7f78b5	0.015592744
186	0x3e6869ab	0.22696559
187	0x3e087794	0.13326865
188	0xbe4c34fa	-0.19942084
189	0xbcb9ef8c	-0.022697233
190	0xbd8d001a	-0.06884785
191	0xbe5bf134	-0.2147873
192	0x3e6b3b60	0.22971869
193	0xbe8a206e	-0.26977867
194	0xbe1ac411	-0.15113856
195	0x3d8490ba	0.06472917
196	0xbeaa08ae	-0.33209747
197	0xbdb692be	-0.089147076
198	0x3e5d8c75	0.21635611
199	0xbddc271d	-0.10749648
200	0xbe9de290	-0.30836916
201	0x3d3cfc46	0.046139024
202	0x3e779181	0.24176599
203	0xbe3ff592	-0.18746021
204	0xbd4c734c	-0.049914643
205	0x3e20ac9b	0.15690844
206	0x3e0c866c	0.13723153
207	0x3d7b4200	0.06134224
208	0xbe115c38	-0.14195335
209	0xbe5f72f8	-0.21821201
210	0x3e04e890	0.1297934
211	0x3e2c2b97	0.16813503
212	0x3de703c2	0.112800136
213	0x3e4c4186	0.1994687
214	0xbe64877c	-0.22317308
215	0x3e343d3c	0.17601484
216	0xbd20d4eb	-0.039265554
217	0xbeaf170e	-0.34197277
218	0xbd514c74	-0.051098302
219	0x3e363807	0.1779481
220	0x3e76526d	0.2405488
221	0x3e84e01e	0.25952238
222	0xbe994d4b	-0.29941782
223	0xbd313b47	-0.043269422
224	0x3cc00331	0.023439022
225	0xbe83108b	-0.2559856
226	0x3d929cb0	0.07158792
227	0xbe95f5ff	-0.29289243
228	0xbd965bad	-0.073417045
229	0x3db8e21d	0.09027503
230	0x3e42c179	0.19019116
231	0xbd53c22a	-0.05169884
232	0xbea814fe	-0.32828516
233	0x3e9523b8	0.29128814
234	0x3e806a25	0.25080982
235	0xbe3d4842	-0.18484595
236	0xbe9e5220	-0.3092203
237	0xbe59a211	-0.2125323
238	0x3dc5753b	0.096415006
239	0x3e7c6155	0.24646504
240	0xbe0cf679	-0.13765897
241	0xbe681ad8	-0.2266649
242	0xbe934bfd	-0.28768912
243	0xbddd576a	-0.108076885
244	0x3e01769a	0.12642899
245	0xbea11819	-0.31463698
246	0x3e0a4dc4	0.13506228
247	0x3e320fb3	0.17388801
248	0xbe153f99	-0.14575042
249	0xbe851de9	-0.25999382
250	0xbdaee70e	-0.08540164
251	0xbe1abe94	-0.15111762
252	0x3d89dd28	0.06731635
253	0xbe3bca6a	-0.18338934
254	0xbe964f3a	-0.2935732
255	0x3e061fe3	0.13098101

encoder.conv_layers.3.bias f4 [30]
0	0xbdc4fff2	-0.0961913
1	0xbdd03149	-0.101656504
2	0xbd5a5b61	-0.053309802
3	0x3e5aca01	0.21366121
4	0x3e54c9b8	0.20780075
5	0x3e21bdd7	0.15795074
6	0xbd5959d3	-0.05306418
7	0x3e049c75	0.12950309
8	0x3db25205	0.0870705
9	0x3e0c359b	0.13692324
10	0x3e0ccd76	0.13750252
11	0x3e2fa2ca	0.17151943
12	0x3dead8db	0.11467143
13	0x3bc50f3b	0.0060137785
14	0x3e15b2bf	0.14618967
15	0x3dedb208	0.116062224
16	0x3dd779cf	0.1052128
17	0x3d8e36dd	0.06944058
18	0x3e87f28f	0.26552245
19	0x3c9b4419	0.01895337
20	0x3e3d5068	0.18487704
21	0x3e759314	0.23981887
22	0x3e31164e	0.17293665
23	0x3e76c428	0.24098265
24	0x3e29d2b8	0.16584289
25	0x3d7e69d4	0.062112644
26	0xbc68249f	-0.014168887
27	0x3e43bde9	0.19115414
28	0x3e4cd648	0.20003617
29	0xbdc4af35	-0.096037306
